rl/pilot_weight_cem.npz (npz, 964 bytes, 2 tensors)

weights f8 [3, 18]
000000 6b 89 0e 3e a9 29 da 3f cb eb d0 45 b0 fa d3 bf
       0.4087927919410023 -0.31217581575372993
000010 84 3b 04 21 a6 29 e7 bf 08 42 36 d8 13 ee de 3f
       -0.723834099278847 0.48328109850356826
000020 85 f7 de 76 3a 79 e8 3f 9a 88 5a 00 eb 1f bf bf
       0.7647983857821009 -0.12158077963479955
000030 79 47 94 21 f9 97 e2 bf 8b ab 1b 05 5d d8 b7 bf
       -0.5810514121860556 -0.09314519285878313
000040 49 d9 ad 46 5f fb b5 bf e1 82 8d fb 1b 2c ad bf
       -0.08586688495220075 -0.05697715230667711
000050 a2 fc 15 60 86 60 d5 bf 26 01 f2 5e 51 41 c6 3f
       -0.33401641257655446 0.17386834274294322
000060 c3 32 81 07 1e 24 c4 3f 75 62 ce 70 4d b1 dc bf
       0.15735221258582585 -0.44832168594579197
000070 cd 39 6a 30 62 d9 ca 3f 7d e6 7d b9 ad b4 e3 3f
       0.20975901950846634 0.6158054945837673
000080 da 76 6a 62 c1 69 aa 3f 4d b9 c2 21 15 e8 b9 bf
       0.051588099731117956 -0.10119754862055182
000090 36 95 15 29 cb cf a5 bf 64 78 ea 59 38 a0 c7 3f
       -0.04260096432225639 0.18457703009056836
0000a0 ab 62 f7 6c 4c 9d e0 bf b5 16 d5 ff 1a 40 a9 3f
       -0.5192014816521654 0.04931721089319067
0000b0 92 82 f6 67 d5 fc bd bf e5 04 fa f9 36 bd e1 3f
       -0.11713918483884303 0.5543475038868136
0000c0 15 0d 54 25 c0 c0 aa bf b1 5a de 26 00 03 e0 3f
       -0.05225182014148736 0.5003662833358559
0000d0 87 91 04 35 1b 31 d5 bf 47 a8 5a 15 fe 8c c6 3f
       -0.3311222093346022 0.17617775004083766
0000e0 0e f4 31 2a aa 87 b8 3f f3 8d 1e 81 8a af d0 bf
       0.09582007913736865 -0.2607141743594347
0000f0 34 5c 7b c2 7f 3f ab 3f 7b 88 3f c8 c5 47 d7 3f
       0.05321883439108213 0.3637556510494801
000100 5d 28 30 02 01 de b8 bf 76 ae 28 db 2a 3e e0 bf
       -0.09713751128598021 -0.507588794750929
000110 6c 1b a9 99 c9 94 75 bf 0b 59 f2 09 97 53 d1 bf
       -0.0052688479432337725 -0.27072692843775376
000120 1f 68 b1 5c b2 4a ba bf 8d b8 0f c3 52 10 99 bf
       -0.10270228159916471 -0.024476330905536293
000130 3e e9 3a 96 cf 5f e0 bf e0 b9 aa ab 48 05 df bf
       -0.5116956648046551 -0.4846975017962034
000140 07 d3 f5 e9 e8 82 c2 3f c9 2b c2 ab 88 12 c4 bf
       0.14462005065765757 -0.1568156088509041
000150 68 ea 26 9e 1d 9f e8 bf cf 31 74 b0 54 23 ce 3f
       -0.7694233025461701 0.23545321098244051
000160 1f 8f 65 dd 01 eb b4 3f f2 b2 66 d1 ac 69 cb bf
       0.08171092658227196 -0.21416244721094518
000170 01 e5 d0 dd 7b 48 d9 bf 88 d8 87 b8 29 0c d0 3f
       -0.3950490633174724 0.2507423688943011
000180 07 cb 9e 41 83 d4 ba 3f 13 a1 21 be 7b df e6 3f
       0.10480518676812887 0.7147806848052219
000190 bd 8b 73 3b 9f 22 c0 3f 23 dc ae cd 8d c6 bd 3f
       0.1260565796174812 0.11631094237860444
0001a0 d4 f7 5c 90 df a3 a9 bf 46 1d ab c5 3b 5d cf 3f
       -0.05007837903256954 0.24503276016023728

bias f8 [3]
000000 f7 74 7c 6a d6 00 c8 3f 8b 28 27 90 7a 08 d8 3f
       0.1875255603744461 0.37551750256955846
000010 24 2c ee 14 d0 04 c4 bf
       -0.15639687559118542
